INFO:root:0.22454346228756958
INFO:root:0.3164784595232129
INFO:root:nosampling
INFO:root:cpu
INFO:root:AEBase(
  (encoder): Sequential(
    (0): Sequential(
      (0): Linear(in_features=17419, out_features=256, bias=True)
      (1): BatchNorm1d(256, eps=1e-05, momentum=0.1, affine=True, track_running_stats=True)
      (2): Dropout(p=0.3, inplace=False)
    )
    (1): Sequential(
      (0): Linear(in_features=256, out_features=256, bias=True)
      (1): BatchNorm1d(256, eps=1e-05, momentum=0.1, affine=True, track_running_stats=True)
      (2): Dropout(p=0.3, inplace=False)
    )
  )
  (bottleneck): Linear(in_features=256, out_features=256, bias=True)
  (decoder_input): Linear(in_features=256, out_features=256, bias=True)
  (decoder): Sequential(
    (0): Sequential(
      (0): Linear(in_features=256, out_features=256, bias=True)
      (1): BatchNorm1d(256, eps=1e-05, momentum=0.1, affine=True, track_running_stats=True)
      (2): Dropout(p=0.3, inplace=False)
    )
  )
  (final_layer): Sequential(
    (0): Linear(in_features=256, out_features=17419, bias=True)
    (1): Sigmoid()
  )
)
INFO:root:Epoch 0/499
INFO:root:----------
INFO:root:train Loss: 0.10180704. Learning rate = 0.01
INFO:root:val Loss: 0.38002610. Learning rate = 0.01
INFO:root:Epoch 1/499
INFO:root:----------
INFO:root:train Loss: 0.08794251. Learning rate = 0.01
INFO:root:val Loss: 0.26814517. Learning rate = 0.01
INFO:root:Epoch 2/499
INFO:root:----------
…
INFO:root:train Loss: 0.01531620. Learning rate = 1.0000000000000004e-08
INFO:root:val Loss: 0.01573908. Learning rate = 1.0000000000000004e-08
INFO:root:Epoch 498/499
INFO:root:----------
INFO:root:train Loss: 0.01533726. Learning rate = 1.0000000000000004e-08
INFO:root:val Loss: 0.01573936. Learning rate = 1.0000000000000004e-08
INFO:root:Epoch 499/499
INFO:root:----------
INFO:root:train Loss: 0.01533369. Learning rate = 1.0000000000000004e-08
INFO:root:val Loss: 0.01574062. Learning rate = 1.0000000000000004e-08
INFO:root:Current model is:
INFO:root:PretrainedPredictor(
  (encoder): Sequential(
    (0): Sequential(
      (0): Linear(in_features=17419, out_features=256, bias=True)
      (1): BatchNorm1d(256, eps=1e-05, momentum=0.1, affine=True, track_running_stats=True)
      (2): Dropout(p=0.3, inplace=False)
    )
    (1): Sequential(
      (0): Linear(in_features=256, out_features=256, bias=True)
      (1): BatchNorm1d(256, eps=1e-05, momentum=0.1, affine=True, track_running_stats=True)
      (2): Dropout(p=0.3, inplace=False)
    )
  )
  (bottleneck): Linear(in_features=256, out_features=256, bias=True)
  (predictor): Predictor(
    (predictor): Sequential(
      (0): Sequential(
        (0): Linear(in_features=256, out_features=128, bias=True)
        (1): BatchNorm1d(128, eps=1e-05, momentum=0.1, affine=True, track_running_stats=True)
        (2): ReLU()
        (3): Dropout(p=0.3, inplace=False)
      )
      (1): Sequential(
        (0): Linear(in_features=128, out_features=64, bias=True)
        (1): BatchNorm1d(64, eps=1e-05, momentum=0.1, affine=True, track_running_stats=True)
        (2): ReLU()
        (3): Dropout(p=0.3, inplace=False)
      )
    )
    (output): Sequential(
      (0): Linear(in_features=64, out_features=2, bias=True)
      (1): Sigmoid()
    )
  )
)
INFO:root:Epoch 0/499
INFO:root:----------
INFO:root:train Loss: 0.60746962. Learning rate = 0.01
INFO:root:val Loss: 0.54446459. Learning rate = 0.01
INFO:root:Epoch 1/499
INFO:root:----------
INFO:root:train Loss: 0.51338080. Learning rate = 0.01
INFO:root:val Loss: 0.50674486. Learning rate = 0.01
INFO:root:Epoch 2/499
INFO:root:----------
…
